erm_cmnist.pt (torch, 499299 bytes, 20 tensors)

conv1.weight f4 [6, 3, 5, 5]
0.1255853 0.14588112 0.02822323 0.15490611 0.006425707 0.06991945 0.0049486696 0.13632491
0.1633132 -0.043214492 0.1512403 0.08799863 0.15956418 0.0836552 0.10319807 0.030527418
0.15144745 0.08834387 0.012225446 0.076322384 -0.017040098 0.03605318 0.009246469 0.12785974
-0.056211215 -0.057992436 -0.023401693 -0.05422673 0.02313135 -0.11394417 0.10213921 -0.08350883
0.11213238 0.039368924 -0.032059234 0.06415055 0.027288157 0.10949742 0.027049618 -0.033457134
0.013921483 -0.03368493 0.052386276 0.10580555 0.061480112 -0.080980144 0.046410087 0.0069851554
0.046476502 -0.08861806 -0.20197725 -0.13075931 -0.17437945 0.009140531 -0.0494851 -0.044892788
-0.05488929 -0.092765875 0.0031192135 -0.16325977 -0.091213115 -0.17600445 -0.058586147 -0.12698403
-0.045821305 -0.12410654 -0.0029077134 -0.16154522 -0.15452352 -0.14997187 0.003806824 -0.059443425
0.018700318 -0.18111962 -0.19661705 -0.13247319 -0.112667054 0.026394594 0.03146132 0.08622008
-0.09874454 -0.10705406 0.047930215 -0.05111112 0.064329475 -0.06278391 0.04312896 -0.09906561
-0.061680578 0.027766109 -0.007304952 -0.048529644 0.060002413 0.07153249 -0.09826336 -0.09238109
0.08561814 -0.052877974 -0.05680885 -0.1358885 -0.120259725 -0.024078714 -0.06874244 -0.13817978
-0.054058902 -0.13202342 -0.14824009 -0.11299078 -0.15092835 -0.12615483 0.059228547 -0.030026264
-0.013502962 -0.15596195 -0.12598304 -0.098752506 -0.038561735 -0.15461643 -0.1006893 -0.119699456
-0.06536853 -0.1058695 -0.06719793 -0.1342106 -0.13329963 -0.07789497 -0.04859675 -0.09452377
0.10158084 -0.013462695 0.09002045 0.028783312 -0.098578915 0.08718398 -0.020665275 -0.052368425
-0.10101601 -0.11422311 0.039288208 -0.01599526 0.038164157 -0.09766564 0.0873916 -0.080258004
-0.015001196 0.017430266 0.05690447 0.09415194 0.10689671 -0.090781406 0.022426723 -0.052638702
-0.009914573 -0.078304775 0.11660902 -0.085613936 0.0657683 0.049646024 0.049325712 -0.04879696
0.1072663 0.033126943 0.02693383 -0.088265754 0.06172065 -0.01473321 -0.04462091 0.112341985
0.039663527 -0.052027877 -0.05629464 0.0016586182 0.075381614 -0.018471058 -0.0571676 -0.046933394
-0.091546856 0.039901678 0.0916644 -0.10484541 0.025235198 0.062207364 0.02699121 -0.032983273
0.069107085 0.06282391 0.050100483 -0.00999705 -0.018700376 0.024321832 -0.018029477 -0.027090479
0.086177774 0.11374431 0.0018696601 -0.025012188 0.006760516 0.0026474812 0.039658446 0.043393556
-0.1257938 -0.06265787 0.07710074 0.024104863 -0.027127143 -0.08912673 -0.08957707 -0.12210455
-0.056344356 0.020311441 0.053860664 0.034263827 -0.120456025 -0.08715595 -0.035325956 0.09197619
-0.001960458 -0.04769815 0.03080096 -0.06029482 -0.094267316 0.06561127 -0.069986254 -0.03976867
-0.13144445 0.06780401 0.084399 0.035047263 -0.09593734 -0.13488482 -0.09551001 0.09217972
0.057480354 0.090218864 0.04547942 0.035904516 0.0077305343 -0.08607503 -0.10947705 -0.12805177
0.0535645 -0.05072928 -0.022435673 -0.07720189 -0.04248815 -0.08603026 -0.07884328 0.035425026
-0.043167245 0.053214252 -0.029429266 -0.07090357 -0.006354483 -0.04326193 -0.021674449 -0.09863609
00000000: 6f99 003e dc61 153e 6734 e73c b59f 1e3e
00000010: bd8e d23b ee31 8f3d 7328 a23b c298 0b3e
00000020: 933b 273e ae01 31bd bdde 1a3e a038 b43d
00000030: cb64 233e 6b53 ab3d 8259 d33d a314 fa3c
00000040: 0a15 1b3e a2ed b43d 3d4d 483c e94e 9c3d
00000050: ad97 8bbc 80ac 133d 807e 173c aaed 023e
00000060: bb3d 66bd 7a89 6dbd e8b4 bfbc d91c 5ebd
00000070: f57d bd3c 905b e9bd 5d2e d13d ad06 abbd
00000080: a9a5 e53d 4f41 213d 8b50 03bd 5d61 833d
00000090: 6a8b df3c 2f40 e03d 2997 dd3c 590a 09bd
000000a0: ef16 643c 36f9 09bd fe92 563d 95b0 d83d
000000b0: 92d2 7b3d ebd8 a5bd 8118 3e3d bbe3 e43b
000000c0: 255e 3e3d 637d b5bd 20d3 4ebe c5e5 05be
000000d0: 8790 32be 2ac2 153c e3b0 4abd 80e1 37bd
000000e0: 98d3 60bd 09fc bdbd b86b 4c3b 922d 27be
000000f0: f1cd babd 833a 34be 07f8 6fbd 1a08 02be
00000100: 1faf 3bbd 922b febd 568f 3ebb 1c6c 25be
00000110: 6a3b 1ebe 3a92 19be e97b 793b f37a 73bd
00000120: 6931 993c 6c77 39be fb55 49be 0da7 07be
00000130: fcbd e6bd 7a39 d83c 96dd 003d 2794 b03d
00000140: 943a cabd 293f dbbd 7952 443d e559 51bd
00000150: 2cbf 833d da94 80bd fea7 303d e9e2 cabd
00000160: c6a4 7cbd c075 e33c 615e efbb 05c7 46bd
00000170: 17c5 753d a07f 923d 4d3e c9bd 4c32 bdbd
00000180: 9058 af3d 9396 58bd 66b0 68bd 5b26 0bbe
00000190: bb4a f6bd b940 c5bc d6c8 8cbd 007f 0dbe
000001a0: de6c 5dbd 2631 07be 40cc 17be b667 e7bd
000001b0: f68c 1abe bb2e 01be a299 723d a4f9 f5bc
000001c0: 873b 5dbc 7db4 1fbe b301 01be c13e cabd
000001d0: e9f2 1dbd c553 1ebe 3136 cebd fd24 f5bd
000001e0: f0df 85bd 1cd2 d8bd 119f 89bd 816e 09be
000001f0: b37f 08be 6687 9fbd 630d 47bd ae95 c1bd
00000200: 9e09 d03d a392 5cbc a45c b83d fbca eb3c
00000210: bee3 c9bd 848d b23d 394a a9bc 4680 56bd
00000220: 7be1 cebd ceed e9bd acec 203d 7e08 83bc
00000230: 0552 1c3d ec04 c8bd 5efa b23d 4f5e a4bd
00000240: 94c7 75bc ebc9 8e3c a914 693d bbd2 c03d
00000250: aaec da3d 9aeb b9bd 3fb8 b73c ae9b 57bd
00000260: bc70 22bc 415e a0bd b6d0 ee3d 5c56 afbd
00000270: 88b1 863d a159 4b3d c209 4a3d 52df 47bd
00000280: 6fae db3d 1eb0 073d 56a4 dc3c adc4 b4bd
00000290: cbce 7c3d 9063 71bc 6ac4 36bd 8e13 e63d
000002a0: 3976 223d 2f1b 55bd 3595 66bd fe65 d93a
000002b0: ad61 9a3d 9e50 97bc 9328 6abd 3b3d 40bd
000002c0: eb7c bbbd f16f 233d 8cba bb3d 31b9 d6bd
000002d0: 0cba ce3c 26cd 7e3d ac1c dd3c 7819 07bd
000002e0: 0488 8d3d d2a9 803d 2a36 4d3d abca 23bc
000002f0: 8831 99bc 943e c73c 8eb2 93bc daec ddbc
00000300: f97d b03d c7f2 e83d 620f f53a 5ce6 ccbc
00000310: 5287 dd3b 5d81 2d3b e570 223d 71bd 313d
00000320: 17d0 00be c552 80bd fee6 9d3d 9077 c53c
00000330: be39 debc 1388 b6bd 2f74 b7bd f311 fabd
00000340: 57c9 66bd 2e64 a63c 009d 5c3d 3a58 0c3d
00000350: a6b1 f6bd d27e b2bd f3b1 10bd 035e bc3d
00000360: 077b 00bb 235f 43bd 4b52 fc3c b4f7 76bd
00000370: 390f c1bd 345f 863d f454 8fbd 79e4 22bd
00000380: 6099 06be d4dc 8a3d 62d9 ac3d b88d 0f3d
00000390: cc7a c4bd 3f1f 0abe c19a c3bd b9c8 bc3d
000003a0: 8570 6b3d abc4 b83d a148 3a3d 9d10 133d
000003b0: 6c50 fd3b 1b48 b0bd 8135 e0bd 0120 03be
000003c0: 7366 5b3d 81c9 4fbd 04cb b7bc 061c 9ebd
000003d0: 0e08 2ebd a230 b0bd 9678 a1bd d519 113d
000003e0: 23d0 30bd 30f7 593d a515 f1bc e435 91bd
000003f0: 4439 d0bb 6c33 31bd 9d8e b1bc b801 cabd

conv1.bias f4 [6]
0.07007706 -0.062524185 -0.074448645 0.083503045 0.105162084 0.04474263
00000000: 9084 8f3d ae0c 80bd 8878 98bd a503 ab3d
00000010: 385f d73d 0c44 373d

conv2.weight f4 [16, 6, 5, 5]
-0.031386945 0.06716228 0.0051813144 -0.053388525 -0.011422261 0.01200464 0.022262104 -0.06342144
0.024360038 -0.050108936 -0.07451027 -0.050263975 0.07184056 0.06026384 0.06005209 0.040434975
0.05523909 -0.018225295 -0.05598689 0.025632534 -0.049887404 -0.06172322 -0.033260852 0.0069203796
0.028723279 -0.011442783 -0.027647763 0.031403914 -0.028278228 -0.034570258 0.06590808 0.010399027
0.09739403 0.09866316 0.04143091 0.0543194 0.044465754 0.025189858 0.013232307 0.018387582
0.05814952 0.102084026 0.0018827836 -0.015571564 -0.0014025342 -0.010988497 0.03972648 0.08291322
0.08312603 0.05733056 -0.059920385 -0.04361867 -0.017280314 -0.014196904 0.006705386 -0.07403715
0.026302641 -0.061409865 -0.051285934 -0.068017945 0.07207827 -0.07597713 0.061820194 -0.0035777723
-0.011036565 0.051892094 -0.0063303793 0.051496934 0.05788151 -0.07262198 0.032321326 0.016581785
0.01833329 0.011937458 0.021661563 -0.017126512 0.012424805 0.10170838 0.07964172 0.020632908
-0.051128916 0.029243488 -0.030569753 0.089976564 -0.028137747 0.021420848 0.008455598 0.039053246
0.09853379 0.026143208 0.075580604 0.09038315 0.090739414 -0.006794846 -0.00016164157 0.0695751
0.0070352294 0.065286614 0.0057363664 -0.034186147 0.0281188 0.0073882714 0.031801153 0.07596726
0.04822521 0.074819945 0.0014220816 -0.073318 -0.062363412 -0.0589813 -0.07165358 -0.041191492
-0.07642978 -0.0797032 -0.05758405 -0.07835958 -0.048926566 0.0305369 0.0638791 -0.032685574
-0.021100149 0.044368587 -0.041384898 -0.042655714 0.042598587 -0.06597598 0.015325924 0.07806226
0.020530986 0.028352678 -0.042043805 0.0049800356 0.012023264 0.028172124 0.03891219 0.07715816
-0.055062566 0.010500571 -0.032512028 -0.05682161 0.0003001316 -0.06406606 0.06389567 0.016016545
-0.037097756 0.048611928 -0.070327446 -0.025386201 -0.010403291 -0.0633319 -0.041012794 -0.0019293439
0.07686579 0.09691391 0.068821296 -0.036687538 -0.040935628 0.087251745 0.048039176 0.01911361
0.025807304 -0.05059845 -0.0099230325 0.09813007 -0.0032829354 0.012516255 -0.05192443 -0.028946867
0.016524015 -0.034897875 0.006300506 0.048519935 -0.06380522 0.040756285 -0.03971176 -0.032590955
0.04007308 0.07268415 -0.018328553 -0.033935845 -0.06911989 -0.03437581 -0.062961645 -0.014333481
0.015587617 -0.08127437 0.06718629 0.050595462 -0.08091839 -0.04287307 0.013015581 -0.02873433
-0.015982036 -0.043828852 0.05935004 -0.061528403 0.055460792 -0.0014358179 0.010499266 0.0598281
-0.008067021 -0.041993234 -0.009693822 0.06858462 -0.059133317 0.024436105 -0.07491336 0.04708636
0.033615317 0.0054239356 0.041857358 0.006035908 0.050322082 -0.059691094 -0.008684375 0.04389695
0.08772043 0.047175065 -0.0543922 0.06609887 -0.009950888 -0.010075353 -0.06770477 -0.0077469763
0.060664 0.046663005 -0.020047797 0.04514407 -0.007996646 0.08846428 -0.040115833 -0.004184463
-0.05800232 -0.00988384 0.041861884 0.09685421 0.026923452 0.09689824 0.035010457 0.060974233
0.07928936 0.080550574 -0.02917477 0.09012112 0.061512552 -0.021728855 -0.021625211 -0.0485927
0.038973268 -0.049683962 0.04833412 0.04077121 -0.049800467 0.04489861 0.013625666 0.049152877
00000000: 998f 00bd 618c 893d 04c8 a93b edad 5abd
00000010: 6f24 3bbc 1caf 443c 045f b63c 1ae3 81bd
00000020: b48e c73c 073f 4dbd d798 98bd 99e1 4dbd
00000030: 2521 933d 37d7 763d 2ef9 753d 259f 253d
00000040: 6242 623d 374d 95bc 8252 65bd 52fb d13c
00000050: bc56 4cbd 7dd1 7cbd 883c 08bd 5ac4 e23b
00000060: 154d eb3c 837a 3bbc 907d e2bc 64a1 003d
00000070: bea7 e7bc 8b99 0dbd d1fa 863d ae60 2a3c
00000080: 8576 c73d e90f ca3d 75b3 293d 057e 5e3d
00000090: b921 363d f65a ce3c 51cc 583c 8ea1 963c
000000a0: 312e 6e3d 6e11 d13d bcc7 f63a e01f 7fbc
000000b0: 3dd5 b7ba 1909 34bc 3cb8 223d 68ce a93d
000000c0: fb3d aa3d 73d3 6a3d 146f 75bd 7ea9 32bd
000000d0: 728f 8dbc 229a 68bc dbb8 db3b caa0 97bd
000000e0: a378 d73c e988 7bbd 3311 52bd fe4c 8bbd
000000f0: c69d 933d e699 9bbd 2c37 7d3d 0f79 6abb
00000100: b5d2 34bc ce8c 543d 126f cfbb 73ee 523d
00000110: 2a15 6d3d d5ba 94bd 5e63 043d 86d6 873c
00000120: b22f 963c 5495 433c 9773 b13c e64c 8cbc
00000130: 6991 4b3c 7c4c d03d 331b a33d 5806 a93c
00000140: 8e6c 51bd 0a90 ef3c 6b6d fabc a245 b83d
00000150: 2281 e6bc c67a af3c 5989 0a3c 4cf6 1f3d
00000160: 15cc c93d 482a d63c 01ca 9a3d cd1a b93d
00000170: 96d5 b93d 4da7 debb 547e 29b9 647d 8e3d
00000180: c887 e63b fdb4 853d 21f8 bb3b c606 0cbd
00000190: 6659 e63c 5019 f23b ed41 023d b994 9b3d
000001a0: cc87 453d 333b 993d 2465 ba3a bf27 96bd
000001b0: c770 7fbd 6096 71bd 1dbf 92bd 69b8 28bd
000001c0: 3787 9cbd 6e3b a3bd 41dd 6bbd fd7a a0bd
000001d0: 3967 48bd 8528 fa3c 0cd3 823d 4fe1 05bd
000001e0: 38da acbc d6bb 353d 3683 29bd c2b7 2ebd
000001f0: db7b 2e3d 6a1e 87bd 9619 7b3c 1bdf 9f3d
00000200: 9930 a83c e043 e83c 2036 2cbd 912f a33b
00000210: 39fd 443c 3ac9 e63c 6362 1f3d 1905 9e3d
00000220: 4989 61bd 960a 2c3c 552b 05bd c7bd 68bd
00000230: fb5a 9d39 1135 83bd bcdb 823d 2135 833c
00000240: d1f3 17bd 4d1d 473d d607 90bd b9f6 cfbc
00000250: 9172 2abc 28b4 81bd 08fd 27bd 0ae2 fcba
00000260: d06b 9d3d cd7a c63d 2ef2 8c3d ac45 16bd
00000270: 1eac 27bd 0bb1 b23d bac4 443d 2594 9c3c
00000280: d769 d33c 5240 4fbd 3794 22bc 6bf8 c83d
00000290: 8426 57bb fa10 4d3c b6ae 54bd fb21 edbc
000002a0: 5f5d 873c 13f1 0ebd 7a74 ce3b d7bc 463d
000002b0: 50ac 82bd 10f0 263d cca8 22bd 187e 05bd
000002c0: ac23 243d 6ddb 943d c325 96bc 5000 0bbd
000002d0: bb8e 8dbd a6cd 0cbd 09f2 80bd fad6 6abc
000002e0: 3463 7f3c 2d73 a6bd f798 893d 303d 4f3d
000002f0: 8ab8 a5bd ac9b 2fbd 4e3f 553c 4264 ebbc
00000300: c2ec 82bc e285 33bd 0719 733d 3505 7cbd
00000310: db2a 633d 0e32 bcba 1d05 2c3c 4f0e 753d
00000320: 8a2b 04bc 1901 2cbd d6d2 1ebc 1876 8c3d
00000330: c735 72bd 3a2e c83c 2d6c 99bd a1dd 403d
00000340: 37b0 093d 45bb b13b 9f72 2b3d dec8 c53b
00000350: 871e 4e3d a67e 74bd e948 0ebc 4acd 333d
00000360: c5a6 b33d a43a 413d 5bca 5ebd d85e 873d
00000370: 0d09 23bc 1813 25bc cca8 8abd 59da fdbb
00000380: d17a 783d b521 3f3d 473b a4bc fde8 383d
00000390: 5d04 03bc c32c b53d 8050 24bd d21d 89bb
000003a0: d793 6dbd d4ef 21bc 5e77 2b3d 805b c63d
000003b0: 928e dc3c 9672 c63d 2067 0f3d 1ec0 793d
000003c0: 7662 a23d b3f7 a43d edff eebc 6c91 b83d
000003d0: 96f4 7b3d b600 b2bc 5b27 b1bc 2409 47bd
000003e0: 6fa2 1f3d 6981 4bbd 00fa 453d b6ff 263d
000003f0: 93fb 4bbd 9be7 373d 2f3e 5f3c 8754 493d

conv2.bias f4 [16]
0.03971956 -0.072255455 -0.026431795 0.0014080546 -0.01157627 -0.074308306 0.078342915 -0.0029818134
-0.037985828 0.039112866 0.035672884 -0.040559575 0.038601115 -0.05314601 0.041845057 0.104392245
00000000: fab0 223d abfa 93bd 7e87 d8bc 798e b83a
00000010: 65aa 3dbc f42e 98bd 4072 a03d 876a 43bb
00000020: 0797 1bbd d034 203d bb1d 123d cc21 26bd
00000030: 341c 1e3d a1af 59bd b965 2b3d 9acb d53d

fc1.weight f4 [120, 400]
0.031659797 0.023781631 -0.0105482275 0.009028628 0.016960995 0.011046419 -0.01065811 0.006532587
-0.020736981 -0.028616942 -0.04717095 -0.04132708 -0.031915296 0.047202576 0.009617184 -0.0463815
-0.026420353 0.010778043 -0.015566599 -0.01473918 -0.020049213 -0.013352386 0.0045177876 0.0020289584
0.031140553 0.031206513 0.04054492 -0.002045975 -0.02286797 -0.00044338594 -0.03369978 0.019869858
-0.006601715 -0.016754694 -0.04302137 0.023327708 0.027260244 0.045005117 -0.018348346 0.014362806
0.0010890921 -0.032530203 -0.031920347 0.024736203 -0.029433079 0.03563195 0.01670388 0.016271723
0.03199666 0.0236654 0.020854969 0.02458174 -0.023200335 -0.028642626 -0.0111595765 0.02673165
0.03289672 0.033957843 -0.018373374 -0.008819522 -0.035510268 0.028549131 -0.03580159 -0.02316006
0.038537834 0.010879154 -0.022954056 -0.03600457 -0.03682394 0.037708066 -0.04666228 0.041461013
0.03787512 0.00088986097 -0.0063344757 0.038830504 0.022015598 0.04720356 0.040329635 -0.032738004
0.030808806 0.025177665 -0.035444897 0.023977648 -0.025931656 -0.029745163 0.0009314119 -0.0061350768
-0.013424574 -0.0327404 0.027310323 0.049781237 -0.011062428 -0.033638686 -0.0025743907 -0.0433739
-0.040541697 -0.016630841 0.031370938 -0.03825012 -0.010197292 -0.028620545 -0.04879121 -0.014040727
-0.005580556 -0.010981032 0.033553086 0.017012142 0.028004251 0.01667149 0.0026034496 0.024234172
-0.034879293 0.022212286 0.020833967 -0.023660356 -0.004481473 -0.040722217 -0.04682745 -0.002888674
0.0068196715 -0.013146984 0.012706202 -0.0414591 -0.030097581 0.03417168 -0.04867816 0.0077079325
0.038233217 0.03696117 0.01689671 -0.04567454 0.0061089713 -0.017760899 -0.014707369 0.038151897
-0.017141258 -0.035924546 -0.040218465 0.030720294 0.002226466 0.04914191 0.010072129 -0.04677453
0.011492918 0.0453299 0.030558702 0.014597332 -0.03807556 -0.030837733 0.03390082 -0.033381987
0.011388719 -0.006398128 0.0167284 0.003265394 -0.038030684 -0.019898899 0.043542907 0.0058769495
0.025309643 -0.025184449 0.03952686 -0.010691635 -0.016829452 0.010125976 -0.017880788 -0.020053815
-0.007149539 -0.0028530466 -0.02839702 0.017064555 -0.048388638 0.030645788 0.046305373 0.007092893
-0.013006442 -0.047094993 0.022253225 0.039580174 0.041693922 0.003100324 0.015290161 0.04660817
0.0060112644 -0.025089934 -0.04871858 0.020493919 0.018068977 0.042741302 -0.026365835 0.020207776
-0.017686035 -0.013768428 0.027501144 -0.04655896 0.035787143 0.02208872 -0.031096483 0.023921497
-0.014503048 0.0032717886 -0.013956551 -0.04936551 -0.006013221 0.022874342 -0.00653028 -0.024781201
0.001393117 0.008557057 -0.015354756 -0.03947151 -0.0269908 -0.0082610985 0.017520778 0.0427205
-0.00017152863 0.017272206 0.02826557 -0.022503454 -0.018530468 0.031559862 0.034688957 0.010944313
-0.03969719 0.0279129 -0.041660756 0.0246236 0.0056974357 0.015617442 -0.04894563 -0.017711744
0.021141555 0.038355716 -0.014666911 0.044249177 -0.011249214 -0.030144405 -0.021649426 0.0028316954
-0.009189329 0.023986133 -0.027725145 -0.014282071 -0.049769286 0.040385943 -0.009622423 -0.03951316
-0.0025310074 -0.00042384904 0.013872466 -0.0054847808 0.031386487 -0.017247476 -0.014951675 -0.011856226
00000000: b4ad 013d b2d1 c23c 79d2 2cbc cfec 133c
00000010: c9f1 8a3c 0afc 343c 5a9f 2ebc 500f d63b
00000020: 9ae0 a9bc 146e eabc 5336 41bd 9646 29bd
00000030: 9db9 02bd 7d57 413d 6591 1d3c 87fa 3dbd
00000040: 7f6f d8bc 6496 303c 0c0b 7fbc 9a7c 71bc
00000050: 3f3e a4bc f7c3 5abc f309 943b 46f8 043b
00000060: 791a ff3c cda4 ff3c 6e12 263d c415 06bb
00000070: 9c55 bbbc 4176 e8b9 c808 0abd 1dc6 a23c
00000080: 3353 d8bb 2441 89bc 2d37 30bd c019 bf3c
00000090: e050 df3c 4957 383d 454f 96bc fa51 6b3c
000000a0: debf 8e3a 643e 05bd e9be 02bd 94a3 ca3c
000000b0: a41d f1bc cff2 113d 93d6 883c 474c 853c
000000c0: ee0e 033d f1dd c13c 0ad8 aa3c a55f c93c
000000d0: a10e bebc f1a3 eabc a8d6 36bc 55fc da3c
000000e0: b6be 063d 6117 0b3d c283 96bc c27f 10bc
000000f0: 3773 11bd dedf e93c b0a4 12bd 2bba bdbc
00000100: d9d9 1d3d 7b3e 323c 250a bcbc 8779 13bd
00000110: b3d4 16bd c673 1a3d f220 3fbd 06d3 293d
00000120: f122 1b3d 8f45 693a 6f91 cfbb bc0c 1f3d
00000130: 0e5a b43c 8558 413d b030 253d 4918 06bd
00000140: c062 fc3c 6441 ce3c ab2e 11bd c66c c43c
00000150: a06e d4bc 21ac f3bc ff29 743a c108 c9bb
00000160: bff2 5bbc cc1a 06bd e6b9 df3c 69e7 4b3d
00000170: 303f 35bc b8c8 09bd 1cb7 28bb d5a8 31bd
00000180: 0d0f 26bd 673d 88bc d07e 003d 28ac 1cbd
00000190: 8b12 27bc a275 eabc 4bd9 47bd 140b 66bc
000001a0: 19dd b6bb c9e9 33bc f66e 093d 0c5d 8b3c
000001b0: 2c69 e53c a692 883c a39e 2a3b be86 c63c
000001c0: 97dd 0ebd 8af6 b53c ffab aa3c 5dd3 c1bc
000001d0: 52d9 92bb 57cc 26bd 24ce 3fbd e84f 3dbb
000001e0: 8d77 df3b 7366 57bc ad2d 503c 04d1 29bd
000001f0: 348f f6bc 9bf7 0b3d c062 47bd d392 fc3b
00000200: 6f9a 1c3d 9964 173d f86a 8a3c 3a15 3bbd
00000210: c42d c83b 4e7f 91bc 2df7 70bc 2a45 1c3d
00000220: d36b 8cbc 9e25 13bd 1ebc 24bd 20a9 fb3c
00000230: e7e9 113b 0749 493d 9205 253c a696 3fbd
00000240: cb4c 3c3c d8ab 393d 3e56 fa3c a629 6f3c
00000250: 1ef5 1bbd 6a9f fcbc 96db 0a3d 8dbb 08bd
00000260: c097 3a3c 63a7 d1bb ff09 893c 3800 563b
00000270: 10c6 1bbd 0403 a3bc 0c5a 323d 6d93 c03b
00000280: 2b56 cf3c 9e4f cebc ebe6 213d f82b 2fbc
00000290: ebdd 89bc 6ce7 253c bb7a 92bc e647 a4bc
000002a0: ae46 eabb 2efa 3abb dea0 e8bc f7ca 8b3c
000002b0: 2a33 46bd e00c fb3c b4aa 3d3d 806b e83b
000002c0: f918 55bc aee6 40bd 654c b63c d21e 223d
000002d0: 3fc7 2a3d ce2e 4b3b 9583 7a3c 35e8 3e3d
000002e0: 24fa c43b 6889 cdbc 228d 47bd dde2 a73c
000002f0: 6405 943c 8111 2f3d 2afd d7bc c78a a53c
00000300: 4ee2 90bc f994 61bc 144a e13c 9cb4 3ebd
00000310: 8a95 123d 67f3 b43c 0dbe febc 04f7 c33c
00000320: 319e 6dbc 816b 563b 05aa 64bc 7d33 4abd
00000330: 8e0a c5bb f962 bb3c f6fb d5bb f201 cbbc
00000340: 4099 b63a e632 0c3c 8492 7bbc e1ac 21bd
00000350: cf1b ddbc 8f59 07bc bc87 8f3c b1fb 2e3d
00000360: 5edc 33b9 717e 8d3c 328d e73c 2a59 b8bc
00000370: 35cd 97bc ea44 013d 0216 0e3d c74f 333c
00000380: 8599 22bd 98a9 e43c 78a4 2abd 6fb7 c93c
00000390: 8eb1 ba3b 4de0 7f3c 377b 48bd 3818 91bc
000003a0: 0e31 ad3c e21a 1d3d 7c4d 70bc a03e 353d
000003b0: a04e 38bc 66f1 f6bc 235a b1bc f793 393b
000003c0: d78e 16bc 917e c43c d81f e3bc 59ff 69bc
000003d0: e1da 4bbd bb6b 253d 5ea7 1dbc 8dd8 21bd
000003e0: 42df 25bb 0e38 deb9 5749 633c adb9 b3bb
000003f0: 1e8f 003d 944a 8dbc dff7 74bc 9e40 42bc

fc1.bias f4 [120]
0.01601162 -0.004076628 0.0055529214 0.04473666 0.031962045 0.006684057 -0.0002660589 -0.033608377
0.02423726 0.052472185 -0.02427488 -0.036905564 0.032322332 -0.043647684 0.049526595 0.014113211
0.047562335 0.003061481 0.014729699 -0.045329135 -0.007585691 0.03837208 -0.019396558 0.04100057
-0.0073847007 -0.022975467 -0.02467219 -0.04579916 0.021372005 -0.023159472 0.035060853 -0.014281639
0.029786946 0.028908042 -0.036451414 -0.03636924 0.0324301 -0.013461337 -0.039831936 -0.027025968
-0.042263746 -0.029851964 9.82019e-06 0.037652962 0.017329179 0.003293053 0.0009248651 -0.028215263
0.017888734 0.0383888 0.022879833 0.041411098 0.054115742 0.0024415946 -0.032047722 0.042499244
0.015000478 -0.009511767 -0.004533595 0.008186245 -0.029415904 0.029021569 -0.034339637 0.004148624
-0.056272406 0.019290227 -0.02559479 -0.0027137878 0.038969167 0.0065892194 0.00039148665 0.036346693
-0.0011629782 0.02741452 0.0043323953 0.029227747 0.035991926 -0.0024368244 0.043111086 0.006828131
0.038303103 -0.051076293 -0.043126076 0.013666666 0.014024515 -0.017109169 -0.013728012 0.014730825
0.042678405 0.014713816 0.042710617 0.04373342 0.022048626 0.0023799783 -0.008413712 -0.03722788
0.031540994 0.005368094 -0.020588009 -0.014836467 -0.035412993 0.014340488 0.029942065 0.043448873
-0.041308913 0.0046125925 -0.019072963 -0.04713485 0.0333112 0.04706026 0.042074595 0.04377603
-0.008608669 0.010816636 0.015333893 -0.034540053 0.040798243 -0.04555824 0.011035529 -0.01692901
00000000: cd2a 833c 3c95 85bb 48f5 b53b ca3d 373d
00000010: a2ea 023d ef05 db3b d27d 8bb9 f0a8 09bd
00000020: 388d c63c 13ed 563d 1ddc c6bc 4a2a 17bd
00000030: 6c64 043d eac7 32bd 66dc 4a3d 193b 673c
00000040: b9d0 423d 21a3 483b d654 713c 0bab 39bd
00000050: 6391 f8bb 0b2c 1d3d 88e5 9ebc 37f0 273d
00000060: 5cfb f1bb 0c37 bcbc 551d cabc e697 3bbd
00000070: 5814 af3c efb8 bdbc f89b 0f3d 89fd 69bc
00000080: c103 f43c 8fd0 ec3c 144e 15bd eaf7 14bd
00000090: 6dd5 043d f18c 5cbc d026 23bd 9065 ddbc
000000a0: c01c 2dbd 1b8c f4bc 65c1 2437 fe39 1a3d
000000b0: ecf5 8d3c 43d0 573b a572 723a b223 e7bc
000000c0: 658b 923c 933d 1d3d 7d6e bb3c af9e 293d
000000d0: 78a8 5d3d 2903 203b 7944 03bd b013 2e3d
000000e0: 91c4 753c 3ed7 1bbc 8d8e 94bb 9a1f 063c
000000f0: 9ff9 f0bc a4be ed3c b8a7 0cbd 2ef1 873b
00000100: e57d 66bd 8a06 9e3c 2aac d1bc ced9 31bb
00000110: 229e 1f3d 61ea d73b 7340 cd39 45e0 143d
00000120: 136f 98ba 6a94 e03c c4f6 8d3b 076f ef3c
00000130: 456c 133d 21b3 1fbb 4095 303d 84be df3b
00000140: b7e3 1c3d 6035 51bd f8a4 30bd 27ea 5f3c
00000150: 14c7 653c 8728 8cbc 75eb 60bc 8f59 713c
00000160: 8dcf 2e3d 3812 713c 54f1 2e3d d121 333d
00000170: 529f b43c 69f9 1b3b aad9 09bc 437c 18bd
00000180: 2131 013d d6e6 af3b 2fa8 a8bc a714 73bc
00000190: 370d 11bd 5ef4 6a3c 1049 f53c 72f7 313d
000001a0: 8933 29bd 3b25 973b e73e 9cbc 7910 41bd
000001b0: 5371 083d 42c2 403d 6956 2c3d 7f4e 333d
000001c0: 600b 0dbc 4238 313c 023b 7b3c df79 0dbd
000001d0: 0f1c 273d 479b 3abd 5dce 343c b5ae 8abc

fc2.weight f4 [84, 120]
0.04025058 0.07013584 0.009141119 -0.042054184 0.07123043 -0.08902063 -0.0061579826 -0.08209678
-0.0023079223 0.06793657 0.04231893 -0.042987823 -0.045518894 0.030890215 -0.0560714 -0.07734391
0.07181901 0.026490895 -0.069621235 -0.08382838 0.03099355 -0.027517216 -0.04834466 0.09039905
0.045363083 0.07047641 0.014658394 -0.0011625988 -0.05963988 0.03649998 -0.028788077 -0.009447336
0.005271817 0.06867343 0.034201838 -0.08948149 0.0013752427 0.06618107 -0.0042748805 0.07666441
-0.038830776 -0.06688784 0.08277769 -0.032448962 0.068392895 0.06870602 -0.059934147 -0.08188207
-0.010466459 -0.05094751 0.067831874 0.04488569 0.07757084 -0.041042846 0.01813414 0.0028778827
-0.066046774 -0.043746326 0.04237211 0.007213604 0.08121113 0.0071629933 0.02751287 0.03251667
-0.061155815 -0.068419844 -0.05757635 -0.03211898 0.028972369 -0.04830808 -0.07160616 -0.026719583
-0.07706021 -0.0073544644 -0.08580691 -0.011096399 -0.07045132 -0.08331856 0.065433696 0.08868121
-0.06365698 0.014483464 -0.07517034 -0.06347493 -0.08066293 -0.06645319 0.08841334 0.025004603
0.04081161 -0.052753057 0.037627872 0.032312628 0.027059978 0.0068788175 -0.042529263 0.03402355
0.072845764 -0.017235972 0.076174684 0.01613614 0.021654606 0.06262544 -0.012144045 0.020539645
-0.017267415 -0.07493964 0.0061865775 0.024685906 0.0048430185 0.020986209 -0.020376293 0.07270242
-0.076138645 -0.00034236873 0.0041016024 0.032884795 -0.02897624 0.01767237 -0.074505955 0.033694234
-0.028959675 0.06305006 0.079396196 0.080354616 -0.052728284 0.04250897 -0.042227432 0.014624438
0.034220446 -0.078390256 -0.08600748 0.0071595735 0.010624546 -0.05851761 0.044684935 0.057032835
-0.015168648 -0.0826598 0.024583293 -0.049748987 -0.008836349 -0.0193184 0.04779949 0.024520548
-0.063607 -0.08049432 -0.04816607 -0.089485124 -0.0006893687 -0.041100387 -0.031147273 -0.08252456
0.07465062 -0.055731602 -0.031257033 0.0636928 -0.014883986 -0.019598788 0.04446743 -0.036112458
0.06450996 -0.0055879746 0.047162004 0.0060372804 -0.041217998 -0.042403944 0.003885713 -0.024764495
0.056276802 0.054811724 -0.048321873 -0.052329995 -0.015137638 0.07256395 -0.00036626938 0.07309932
0.027043592 -0.00039549242 -0.07373343 -0.0044257264 -0.06014612 -0.046738703 0.046268295 -0.053332083
-0.047466632 0.072324015 -0.038261082 -0.06817331 -0.024090037 -0.0020742898 -0.07839556 -0.08744381
-0.07976744 0.0003807691 -0.008195849 -0.085628636 -0.0597306 0.0012454065 -0.0807392 -0.05186625
-0.03289752 -0.08796263 -0.014253016 -0.03046746 0.015934315 0.004063505 0.04196497 -0.027446782
-0.042708494 -0.05512085 0.07640219 -0.06771273 -0.015860355 -0.043184318 0.019489467 -0.06648632
-0.06232339 0.059681214 -0.081693225 0.0012518192 0.027102225 -0.08968316 0.044481453 -0.051668502
0.005902925 -0.08804967 0.053510953 0.08712226 0.09099351 -0.048167747 -0.014978483 0.07437885
-0.0015507179 0.047853332 0.06817967 -0.072585076 -0.066753015 0.07752004 -0.033904687 -0.05759177
0.03133275 -0.0046998486 -0.030089464 -0.0655809 0.029839922 -0.026987858 -0.059492905 -0.03014013
-0.012749052 -0.07161765 0.06999239 -0.08864646 0.0065084626 0.015394552 -0.039468374 -0.06348624
00000000: cbdd 243d 61a3 8f3d a2c4 153c 0241 2cbd
00000010: 42e1 913d 7350 b6bd e7c8 c9bb 5b22 a8bd
00000020: 8340 17bb 5422 8b3d 9d56 2d3d 0014 30bd
00000030: 0572 3abd 7a0d fd3c 20ab 65bd 7c66 9ebd
00000040: d815 933d 6f03 d93c 9495 8ebd 37ae abbd
00000050: 2fe6 fd3c c96b e1bc 0d05 46bd 2323 b93d
00000060: a4ce 393d f055 903d c329 703c 5862 98ba
00000070: f248 74bd 0181 153d f9d4 ebbc 00c9 1abc
00000080: 35bf ac3b a8a4 8c3d 3a17 0c3d 1242 b7bd
00000090: 7d41 b43a f189 873d 4c14 8cbb 3b02 9d3d
000000a0: 050d 1fbd 7efc 88bd 5987 a93d 34e9 04bd
000000b0: 9311 8c3d beb5 8c3d 827d 75bd c9b1 a7bd
000000c0: 837b 2bbc 56ae 50bd 70eb 8a3d 0fda 373d
000000d0: 76dd 9e3d 8b1c 28bd 0c8e 943c dc9a 3c3b
000000e0: 8843 87bd 592f 33bd 618e 2d3d 1960 ec3b
000000f0: 0552 a63d 8bb7 ea3b ac62 e13c 3330 053d
00000100: 857e 7abd b41f 8cbd 2ed5 6bbd 318f 03bd
00000110: 7657 ed3c b1de 45bd 40a6 92bd 07e3 dabc
00000120: bed1 9dbd b8fd f0bb 89bb afbd accd 35bc
00000130: c848 90bd eca2 aabd 1a02 863d 7f9e b53d
00000140: 975e 82bd 0d4c 6d3c e8f2 99bd 25ff 81bd
00000150: 9b32 a5bd 9c18 88bd 0e12 b53d 74d6 cc3c
00000160: 132a 273d 9713 58bd af1f 1a3d 3f5a 043d
00000170: e3ac dd3c b467 e13b 2a33 2ebd 475c 0b3d
00000180: 2930 953d 7432 8dbc 7901 9c3d f02f 843c
00000190: 0065 b13c c441 803d d1f7 46bc c242 a83c
000001a0: 6574 8dbc f479 99bd c6b8 ca3b 193a ca3c
000001b0: 2fb2 9e3b 45eb ab3c 2fec a6bc 02e5 943d
000001c0: 94ee 9bbd f47f b3b9 bc66 863b 35b2 063d
000001d0: 945f edbc a5c5 903c 9496 98bd f702 0a3d
000001e0: d73c edbc 6420 813d 799a a23d f690 a43d
000001f0: 9df9 57bd e31d 2e3d acf6 2cbd 579b 6f3c
00000200: bd2a 0c3d 128b a0bd b124 b0bd db9a ea3b
00000210: 9312 2e3c 29b0 6fbd 8d07 373d 439b 693d
00000220: ec85 78bc 8b49 a9bd e762 c93c 98c5 4bbd
00000230: 55c6 10bc 9f41 9ebc 66c9 433d 51df c83c
00000240: 6344 82bd 35da a4bd c949 45bd fa43 b7bd
00000250: c0b6 34ba e158 28bd 9128 ffbc a302 a9bd
00000260: 6de2 983d d246 64bd 6007 00bd 5f71 823d
00000270: f6db 73bc a38d a0bc 7b23 363d a8ea 13bd
00000280: cc1d 843d 541b b7bb f22c 413d 61d4 c53b
00000290: 34d4 28bd c2af 2dbd 72a7 7e3b e9de cabc
000002a0: 8182 663d 4282 603d 28ed 45bd fa57 56bd
000002b0: db03 78bc 699c 943d d807 c0b9 19b5 953d
000002c0: 868a dd3c 185a cfb9 8d01 97bd af05 91bb
000002d0: c75b 76bd 1571 3fbd d383 3d3d be72 5abd
000002e0: 5f6c 42bd 9d1e 943d a7b7 1cbd 739e 8bbd
000002f0: 7858 c5bc cff0 07bb da8d a0bd be15 b3bd
00000300: 1d5d a3bd f7a1 c739 e247 06bc 115e afbd
00000310: 13a8 74bd e83c a33a 985a a5bd b471 54bd
00000320: 8dbf 06bd c025 b4bd 7b85 69bc e596 f9bc
00000330: ae88 823c 2727 853b 76e3 2b3d 13d8 e0bc
00000340: 1aef 2ebd 67c6 61bd c078 9c3d f9ac 8abd
00000350: 93ed 81bc 0ae2 30bd 60a8 9f3c fb29 88bd
00000360: d046 7fbd 4a74 743d c74e a7bd 1514 a43a
00000370: 7c05 de3c ceab b7bd 2f32 363d 5aa2 53bd
00000380: 536d c13b 6353 b4bd 4d2e 5b3d 286d b23d
00000390: ce5a ba3d 8b4b 45bd 5068 75bc f053 983d
000003a0: 7541 cbba db01 443d c8a1 8b3d 7ca7 94bd
000003b0: ceb5 88bd d4c2 9e3d a4df 0abd 59e5 6bbd
000003c0: c556 003d 3001 9abb 2e7e f6bc 474f 86bd
000003d0: da72 f43c a415 ddbc d5ae 73bd 6fe8 f6bc
000003e0: 66e1 50bc 46ac 92bd 2c58 8f3d 468c b5bd
000003f0: f144 d53b 6e39 7c3c 97a9 21bd 1305 82bd

fc2.bias f4 [84]
-0.07687668 0.065390624 0.05193582 -0.006011796 -0.012253174 -0.07552644 -0.043840803 0.06961722
0.009388514 -0.06911873 -0.0014008335 0.002393986 0.034943257 0.07433375 -0.0399075 -0.03785517
-0.0502207 0.090028405 0.060825583 -0.015333767 0.0211093 0.08480743 -0.02391707 -0.010917617
-0.0019607472 -0.08728067 -0.009819699 0.043070838 -0.022469494 -0.034526166 -0.06553181 0.00061895006
-0.06591476 -0.07161398 0.087473124 0.031358715 0.05869104 -0.040197205 -0.06444655 0.07029761
0.04925718 -0.029842557 -0.01790398 -0.059535235 0.0037165398 0.034252804 -0.0703044 0.072402425
-0.039657276 -0.038439956 -0.00046478136 -0.047539856 -0.0042082067 -0.029339273 0.019580977 0.015812753
0.053348172 0.03674217 0.07662816 0.078928955 -0.08334904 -0.04750442 -0.06262586 0.059931543
-0.0042328043 0.058887564 -0.029823998 0.072705396 0.052379843 -0.069822006 -0.034898818 0.038617693
0.09016958 0.023957316 -0.07619299 0.06961981 0.049994264 -0.040830728 -0.032467917 -0.013201639
-0.08704565 0.0018821053 -0.07074265 0.03912627
00000000: 8571 9dbd 85eb 853d a8ba 543d 9afe c4bb
00000010: 89c1 48bc 9bad 9abd 6a92 33bd 7993 8e3d
00000020: 48d2 193c 1f8e 8dbd 2c9c b7ba 6ce4 1c3b
00000030: a920 0f3d 4b3c 983d 0c76 23bd 060e 1bbd
00000040: 39b4 4dbd d060 b83d 3f24 793d 7b3a 7bbc
00000050: 69ed ac3c 85af ad3d bbed c3bc cedf 32bc
00000060: e17f 00bb 35c0 b2bd cee2 20bc 0c6b 303d
00000070: f211 b8bc 4f6b 0dbd 8b35 86bd 0941 223a
00000080: 51fe 86bd 5aaa 92bd 1c25 b33d ff71 003d
00000090: 0466 703d d3a5 24bd 8efc 83bd 31f8 8f3d
000000a0: e6c1 493d 6178 f4bc 5eab 92bc 38db 73bd
000000b0: 3191 733b ab4c 0c3d c1fb 8fbd b947 943d
000000c0: ab6f 22bd 3773 1dbd e6ad f3b9 27b9 42bd
000000d0: ffe4 89bb ea58 f0bc 4968 a03c bf89 813c
000000e0: 9d83 5a3d f57e 163d 3aef 9c3d 81a5 a13d
000000f0: e7b2 aabd ff93 42bd fd41 80bd c77a 753d
00000100: 56b3 8abb 1634 713d 7551 f4bc 91e6 943d
00000110: 3f8c 563d d7fe 8ebd 10f2 0ebd 962d 1e3d
00000120: d4aa b83d 2242 c43c 120b 9cbd d594 8e3d
00000130: c9c6 4c3d 1f3e 27bd 14fd 04bd b04b 58bc
00000140: fd44 b2bd f9b0 f63a 86e1 90bd de42 203d

fc.weight f4 [5, 84]
0.0060391463 -0.038541537 -0.061487045 0.074069574 0.0051918174 0.062850334 0.11229949 -0.10468154
-0.13963145 0.08573437 0.057425827 -0.0635406 0.085578926 -0.040234685 -0.06841322 0.01317949
-0.069041625 -0.10662724 -0.041183773 0.010678763 0.04763776 -0.032891657 0.02629594 0.0764199
-0.021453386 0.09912052 0.11024813 -0.07467968 -0.10325162 0.13742091 -0.0333505 -0.0901176
0.0008578947 -0.10165427 0.03938069 -0.07460685 0.03641228 -0.0028621473 0.041843645 0.0728069
-0.10375593 0.13669764 0.0752184 -0.00599602 0.07546514 -0.022540247 0.19136669 0.107060745
-0.030535195 0.06335866 0.075668044 0.10965408 -0.017970612 0.10307658 -0.1018782 -0.086422905
0.026865646 0.025089402 -0.104333594 0.012564562 0.061605763 -0.10645713 0.0029801778 0.03782615
-0.093467504 0.16054477 0.05876515 -0.08043107 -0.044639014 -0.09350311 0.05922303 0.05243606
-0.055907726 -0.105304666 -0.11717591 0.051763665 0.15032707 0.005103765 0.1073553 -0.10737822
-0.004628814 0.029065527 -0.12896109 -0.13643932 0.024882749 -0.026184281 0.042322468 0.17271525
-0.05260207 0.014797138 -0.020490503 0.11985059 0.06943868 -0.02813498 -0.094656184 0.013833842
0.048671532 0.041795406 0.06843499 -0.047657937 0.057280798 -0.17243391 0.052304443 0.022640418
-0.05587126 0.039588645 0.06586269 -0.068537496 0.13937405 -0.06261232 -0.100609064 -0.08228157
0.1043438 0.13729638 -0.13551454 0.119214974 0.001899028 -0.08603574 0.011624626 0.08860911
0.110675745 0.08881669 -0.018391255 -0.07682897 0.015751513 -0.10105174 0.004905644 0.09385874
-0.14147909 -0.019945914 0.098262444 -0.086112775 0.0052368203 0.10023015 0.08255344 0.15122192
-0.13662358 -0.07635688 -0.05638745 0.06298389 0.008234316 -0.03250412 -0.22709651 0.040817138
-0.034764055 -0.14198458 0.056723934 -0.021793699 0.14851555 -0.18582095 -0.07667517 0.037778404
0.17736432 -0.1074864 -0.12670684 -0.10275586 -0.09118087 0.043095358 0.10853058 -0.08595122
0.040149357 -0.08077061 0.08893038 -0.11324072 0.047318917 0.03762314 0.20046407 -0.048509903
0.0056823115 -0.07780552 -0.046727076 0.10930357 -0.05056732 -0.110817835 0.023537928 0.17422017
0.13068204 -0.09692018 -0.07853449 -0.005388983 0.00898596 0.19447018 0.038431946 -0.076803945
-1.3171573e-05 -0.124771744 -0.030443758 -0.065303214 -0.05608237 0.13702968 0.124021865 0.0716432
-0.1573985 -0.07499177 -0.115638286 -0.08738786 -0.064265855 -0.1314444 0.03321277 0.13497686
0.10577892 -0.05906838 0.030264733 0.08650059 0.11497337 0.08556746 -0.01591027 -0.18392193
0.043463476 -0.17769599 0.10602609 0.077771425 -0.14013343 -0.06907976 -0.08687817 -0.0870825
0.01852063 -0.06990982 -0.03652777 0.15771532 0.10978774 0.048309393 0.02850704 0.17098193
0.08645829 0.08487633 -0.06307032 0.0258589 0.086086765 0.116524234 -0.074737474 -0.1051983
-0.011664971 -0.00070840074 0.08039832 -0.04983428 -0.05228403 0.13140887 0.10978826 0.080177695
0.15726887 -0.0052215727 0.104546055 -0.18541463 -0.067515634 -0.04384337 -0.19085072 0.08928908
-0.0258917 0.089053534 -0.11237889 0.040095218 -0.047464598 -0.020681085 -0.049822047 -0.07994868
00000000: 08e4 c53b bbdd 1dbd d7d9 7bbd cab1 973d
00000010: 1f20 aa3b adb7 803d 46fd e53d 4663 d6bd
00000020: 8cfb 0ebe 8095 af3d 5837 6b3d 9321 82bd
00000030: 0144 af3d 20cd 24bd 3b1c 8cbd caee 573c
00000040: b265 8dbd 625f dabd 51b0 28bd faf5 2e3c
00000050: d01f 433d 67b9 06bd 956a d73c 0982 9c3d
00000060: 03bf afbc b3ff ca3d c6c9 e13d a9f1 98bd
00000070: 9675 d3bd 11b8 0c3e 899a 08bd 948f b8bd
00000080: 57e4 603a 1d30 d0bd a54d 213d 7acb 98bd
00000090: 0b25 153d dd92 3bbb 3e64 2b3d c91b 953d
000000a0: fd7d d4bd 77fa 0b3e 1b0c 9a3d 437a c4bb
000000b0: 788d 9a3d 53a6 b8bc a1f5 433e aa42 db3d
000000c0: f224 fabc 2fc2 813d d9f7 9a3d 5192 e03d
000000d0: 1b37 93bc d019 d33d 85a5 d0bd 7efe b0bd
000000e0: 5815 dc3c 4a88 cd3c daac d5bd 98db 4d3c
000000f0: 5356 7c3d 3206 dabd 164f 433b 98ef 1a3d
00000100: e46b bfbd d965 243e bab3 703d 0bb9 a4bd
00000110: 66d7 36bd 8f7e bfbd d993 723d 32c7 563d
00000120: 80ff 64bd f9a9 d7bd ecf9 efbd 2306 543d
00000130: 57ef 193e 7c3d a73b 18dd db3d 1de9 dbbd
00000140: 4ead 97bb d41a ee3c 600e 04be c0b6 0bbe
00000150: e8d6 cb3c 6b80 d6bc 535a 2d3d 44dc 303e
00000160: 4575 57bd b26f 723c b3db a7bc 3a74 f53d
00000170: de35 8e3d 547b e6bc 1adb c1bd 57a7 623c
00000180: cd5b 473d a931 2b3d a527 8c3d f834 43bd
00000190: 459f 6a3d 8492 30be 2f3d 563d 6678 b93c
000001a0: 43d9 64bd b427 223d 05e3 863d 635d 8cbd
000001b0: 12b8 0e3e e33a 80bd 200c cebd 3d83 a8bd
000001c0: 34b2 d53d 6c97 0c3e 53c4 0abe fb26 f43d
000001d0: cee8 f83a 8233 b0bd 3775 3e3c b178 b53d
000001e0: f7a9 e23d 86e5 b53d 42a9 96bc 8258 9dbd
000001f0: 5109 813c 37f4 cebd 86bf a03b 0339 c03d
00000200: e5df 10be 9d65 a3bc d23d c93d e55b b0bd
00000210: a299 ab3b 7745 cd3d c711 a93d ebd9 1a3e
00000220: 0de7 0bbe ff60 9cbd 87f6 66bd b3fd 803d
00000230: 39e9 063c 0a23 05bd fd8b 68be df2f 273d
00000240: c164 0ebd 6864 11be 5b57 683d b388 b2bc
00000250: 7614 183e d947 3ebe df07 9dbd 87bd 1a3d
00000260: fe9e 353e d421 dcbd 70bf 01be aa71 d2bd
00000270: 09bd babd c284 303d 4845 de3d 3107 b0bd
00000280: a773 243d 106b a5bd 2221 b63d c0ea e7bd
00000290: 7bd1 413d b91a 1a3d 7446 4d3e 52b2 46bd
000002a0: af32 ba3b 8058 9fbd e464 3fbd 8dda df3d
000002b0: ae1f 4fbd 76f4 e2bd 9dd2 c03c c666 323e
000002c0: 83d1 053e 167e c6bd b1d6 a0bd 1196 b0bb
000002d0: d939 133c 3123 473e d16a 1d3d 634b 9dbd
000002e0: 7afb 5cb7 5488 ffbd 3065 f9bc b1bd 85bd
000002f0: a1b6 65bd 8251 0c3e 2dff fd3d acb9 923d
00000300: 132d 21be 4995 99bd c4d3 ecbd 68f8 b2bd
00000310: d19d 83bd 5c99 06be 1d0a 083d 6037 0a3e
00000320: 9ea2 d83d b0f1 71bd bfed f73c 3927 b13d
00000330: 2977 eb3d fe3d af3d 4156 82bc 0856 3cbe
00000340: c206 323d f0f5 35be 3524 d93d a046 9f3d
00000350: 237f 0fbe b079 8dbd 2fed b1bd 4f58 b2bd
00000360: 94b8 973c e12c 8fbd 259e 15bd 2080 213e
00000370: 65d8 e03d 12e0 453d 9987 e93c e315 2f3e
00000380: 0b11 b13d a4d3 ad3d 032b 81bd 0bd6 d33c
00000390: 424e b03d 42a4 ee3d f60f 99bd 3572 d7bd
000003a0: 6f1e 3fbc f8b3 39ba e0a7 a43d 081f 4cbd
000003b0: c727 56bd 0c90 063e abd8 e03d 3434 a43d
000003c0: 170b 213e ba19 abbb 3e1c d63d 55dd 3dbe
000003d0: a345 8abd 1b95 33bd 5f6e 43be 31dd b63d
000003e0: d51a d4bc b361 b63d e726 e6bd e23a 243d
000003f0: 3d6a 42bd 616b a9bc 3412 4cbd 22bc a3bd

fc.bias f4 [5]
-0.060950723 -0.09772495 0.003932537 0.07472182 0.0035694907
00000000: 77a7 79bd 0524 c8bd 83dc 803b c107 993d
00000010: 1eee 693b

momentum_buffer f4 [6, 3, 5, 5]
0.033553347 0.043627955 0.051739488 0.05206338 0.05597411 0.040906984 0.051551595 0.05824739
0.060761236 0.06112312 0.04611252 0.055652164 0.06151265 0.06236915 0.059699316 0.04950494
0.05745608 0.061192818 0.060570866 0.059316486 0.049828563 0.05598726 0.056453694 0.056278653
0.05467566 -0.04907483 -0.04471026 -0.040232938 -0.03470509 -0.029974323 -0.046712052 -0.044125475
-0.042385533 -0.038702514 -0.033333182 -0.0445156 -0.043214496 -0.04314701 -0.04133995 -0.036061108
-0.040776327 -0.039847195 -0.040457897 -0.03971468 -0.036270626 -0.03618876 -0.034512684 -0.03416733
-0.033493552 -0.0338432 -0.020925717 -0.019217497 -0.017856756 -0.016425576 -0.0147835 -0.018792154
-0.017460786 -0.016440721 -0.015528671 -0.014097494 -0.01849559 -0.016576044 -0.014790768 -0.014074514
-0.013435399 -0.018396141 -0.0153206205 -0.013307086 -0.011842067 -0.012760034 -0.0178581 -0.0139605915
-0.012022247 -0.010575494 -0.012471005 0.025691703 0.017766804 0.007589633 -0.0025117905 -0.004020933
0.025488382 0.016568698 0.0078064166 -0.0005087498 -0.0044642994 0.019781161 0.012900407 0.0047824397
-0.0020116144 -0.0043953424 0.014386484 0.009888902 0.003919713 -0.0005446802 0.0005094679 0.012244446
0.00703308 0.0020341063 0.0023063363 0.0034798328 0.05389975 0.052880485 0.053999394 0.055181112
0.055489946 0.052330624 0.05309 0.054884754 0.054327756 0.05395416 0.052788448 0.05275695
0.053783104 0.052761473 0.05290103 0.056266006 0.05546044 0.054450702 0.053429537 0.05344558
0.057435542 0.057114433 0.05479689 0.054045305 0.054256633 0.03642645 0.036570396 0.03656896
0.03583051 0.03481276 0.035268817 0.03826536 0.038683165 0.03558713 0.033759758 0.036092103
0.038380433 0.03803204 0.034715448 0.03291787 0.03766612 0.037735857 0.03617647 0.033604607
0.032522425 0.03667571 0.03622259 0.03349529 0.03252627 0.032965414 0.0056721335 0.008401281
0.0070659714 0.0044037485 0.0024808834 0.009845366 0.014133386 0.0130659705 0.008168705 0.002386997
0.009680641 0.013988337 0.013549676 0.007557925 0.0016259581 0.010203585 0.013117956 0.013613436
0.008654776 0.00058312 0.009094366 0.01215451 0.012951772 0.008205903 0.0015807529 -0.029831665
-0.029874867 -0.031596176 -0.03189462 -0.029495614 -0.03061036 -0.031865515 -0.032878567 -0.031928275
-0.028402599 -0.029799929 -0.032707654 -0.033772707 -0.031539723 -0.02840056 -0.030848777 -0.03306116
-0.034281526 -0.032062694 -0.028638087 -0.03015962 -0.03148049 -0.031669337 -0.030100135 -0.02694664
-0.02275435 -0.022404598 -0.02282004 -0.0231976 -0.022670958 -0.022375688 -0.023156907 -0.023853278
-0.023478335 -0.02196087 -0.021224406 -0.02364028 -0.024259917 -0.02311612 -0.021987686 -0.021015752
-0.02330172 -0.02413436 -0.02316436 -0.02166284 -0.021306632 -0.022355251 -0.023466982 -0.022267029
-0.020411324 -0.008055035 0.0059171654 -0.0023899358 -0.019598538 -0.024790874 -0.0047472 0.0006764624
-0.009313992 -0.027278317 -0.034188442 -0.010005989 -0.016106118 -0.032474395 -0.04420387 -0.044423252
-0.020938206 -0.03206539 -0.042189535 -0.04867866 -0.046129137 -0.029428352 -0.03565265 -0.04032065
-0.039728433 -0.03275179 -0.1231376 -0.12664531 -0.13027363 -0.13213661 -0.13300456 -0.12639688
00000000: 3c6f 093d 3ab3 323d c9ec 533d 6940 553d
00000010: 1c45 653d 158e 273d c427 533d d194 6e3d
00000020: c6e0 783d 3d5c 7a3d 7be0 3c3d 86f3 633d
00000030: b0f4 7b3d cb76 7f3d 4587 743d b1c5 4a3d
00000040: 1157 6b3d 52a5 7a3d 2819 783d d8f5 723d
00000050: 0919 4c3d e652 653d fd3b 673d 7284 663d
00000060: 96f3 5f3d b002 49bd 1b22 37bd 4bcb 24bd
00000070: ed26 0ebd b68c f5bc 2355 3fbd eabc 34bd
00000080: 749c 2dbd 8786 1ebd 6088 08bd fd55 36bd
00000090: af01 31bd ebba 30bd 1454 29bd d0b4 13bd
000000a0: 1405 27bd d036 23bd 2eb7 25bd dcab 22bd
000000b0: 8290 14bd aa3a 14bd 2c5d 0dbd 0bf3 0bbd
000000c0: 8930 09bd 2b9f 0abd 696c abbc 036e 9dbc
000000d0: 5548 92bc ee8e 86bc 7e36 72bc 01f2 99bc
000000e0: ec09 8fbc b1ae 86bc f86b 7ebc 2df9 66bc
000000f0: 1084 97bc 7cca 87bc fa54 72bc ca98 66bc
00000100: 2620 5cbc 81b3 96bc 5703 7bbc f705 5abc
00000110: 3b05 42bc 760f 51bc 264b 92bc f7ba 64bc
00000120: f5f8 44bc d644 2dbc 3053 4cbc 6877 d23c
00000130: b08b 913c 75b2 f83b da9c 24bb 08c2 83bb
00000140: 03cd d03c 14bb 873c f8cc ff3b 9f5d 05ba
00000150: 4249 92bb 1a0c a23c 3b5c 533c 03b6 9c3b
00000160: 4ad5 03bb ce06 90bb 4ab5 6b3c 1005 223c
00000170: f070 803b dfc8 0eba d08d 053a ee9c 483c
00000180: c075 e63b a44e 053b e725 173b e80d 643b
00000190: fcc5 5c3d 3599 583d 782e 5d3d 9705 623d
000001a0: 6d49 633d a358 563d e674 593d d6ce 603d
000001b0: c886 5e3d 0aff 5c3d b338 583d ac17 583d
000001c0: ac4b 5c3d 6a1c 583d c0ae 583d 2f77 663d
000001d0: 7d2a 633d b307 5f3d eed8 5a3d c1e9 5a3d
000001e0: 8841 6b3d d3f0 693d b472 603d 9c5e 5d3d
000001f0: 343c 5e3d e733 153d d7ca 153d 55c9 153d
00000200: 03c3 123d d397 0e3d 0976 103d 23bc 1c3d
00000210: 3d72 1e3d cfc3 113d ac47 0a3d 50d5 133d
00000220: cd34 1d3d 7cc7 1b3d c931 0e3d e3d4 063d
00000230: ca47 1a3d ea90 1a3d c72d 143d fca4 093d
00000240: 3c36 053d 4539 163d 235e 143d 5b32 093d
00000250: 443a 053d be06 073d 4edd b93b 87a5 093c
00000260: aa89 e73b 524d 903b 5196 223b 754e 213c
00000270: b88f 673c a712 563c 08d6 053c 2a6f 1c3b
00000280: 8d9b 1e3c 562f 653c 76ff 5d3c 78a8 f73b
00000290: 1a1e d53a f02c 273c b2ec 563c e40a 5f3c
000002a0: c3cc 0d3c 85dc 183a 8900 153c b623 473c
000002b0: ab33 543c 0d72 063c 4431 cf3a 8961 f4bc
000002c0: 23bc f4bc fe6a 01bd efa3 02bd c9a0 f1bc
000002d0: 94c2 fabc 6a85 02bd adab 06bd 39c7 02bd
000002e0: 91ac e8bc fb1e f4bc 76f8 05bd 4055 0abd
000002f0: cc2f 01bd 4ba8 e8bc 93b6 fcbc 246b 07bd
00000300: c96a 0cbd 2c54 03bd 6c9a eabc 4f11 f7bc
00000310: b0f1 00bd b5b7 01bd 8f94 f6bc 33bf dcbc
00000320: 5567 babc d989 b7bc 18f1 babc e508 bebc
00000330: 72b8 b9bc 384d b7bc 8eb3 bdbc f367 c3bc
00000340: a355 c0bc 48e7 b3bc cede adbc 43a9 c1bc
00000350: bcbc c6bc 045e bdbc 851f b4bc 3a29 acbc
00000360: 40e3 bebc 6cb5 c5bc 2fc3 bdbc 4576 b1bc
00000370: 3f8b aebc 5c22 b7bc d43d c0bc 5869 b6bc
00000380: a635 a7bc 44f9 03bc c8e4 c13b 78a0 1cbb
00000390: 1d8d a0bc 3b16 cbbc 668e 9bbb a054 313a
000003a0: b799 18bc c776 dfbc 2e09 0cbd 29f0 23bc
000003b0: faf0 83bc df03 05bd 1e0f 35bd 28f5 35bd
000003c0: 9a86 abbc 0057 03bd efce 2cbd 4663 47bd
000003d0: e8f1 3cbd ba13 f1bc 8308 12bd 4427 25bd
000003e0: 48ba 22bd be26 06bd 912f fcbd 4faf 01be
000003f0: 7366 05be d24e 07be 5932 08be 2f6e 01be

momentum_buffer f4 [6]
0.011303154 -0.056927674 0.020905524 0.14009815 -0.17994332 -0.034087047
00000000: dd30 393c fe2c 69bd 1042 ab3c e475 0f3e
00000010: 1043 38be dc9e 0bbd
